model/SE.ckpt (torch, 504373 bytes, 80 tensors)

in_ch_lstm.lstm2.weight_ih_l0 f4 [80, 2]
000000 90 ed 3f 3e 2b 5c 41 bc d6 4d cc bd 4d 16 0f bd
       0.18742967 -0.01180176 -0.099757835 -0.034933377
000010 87 47 a9 bd ef 13 d2 be 74 5e ea 3e 58 20 5b be
       -0.08265596 -0.41030833 0.45775187 -0.21399057
000020 41 e9 88 3e 7f d3 79 bf d5 69 54 3d 12 6a 9d bc
       0.2674046 -0.9758834 0.05185874 -0.019215617
000030 72 aa f3 3e f0 9e aa be b9 51 a8 3d 61 48 87 bf
       0.47590977 -0.33324385 0.08218712 -1.0568963
000040 0d d0 68 bd b7 a9 04 3f 55 42 02 3e cf 51 76 3f
       -0.056839038 0.51821464 0.12720616 0.9621858
000050 f8 ac 44 bd 72 c3 b2 be 06 0b 7d bd c3 7d 0e 3f
       -0.04801652 -0.34914738 -0.06177809 0.5566065
000060 8c c3 24 bf 5b 14 b7 3e c7 78 d8 3d de 02 e3 3e
       -0.6436088 0.35757717 0.105699115 0.44338125
000070 0e 30 27 3d b8 fe 23 bf 8c ac 19 3f 17 00 bc bb
       0.040817313 -0.64060545 0.6002891 -0.0057373154
000080 bd 7f b3 3d 72 0e 41 3f 73 7a 6d be 42 65 39 3f
       0.087645985 0.75412667 -0.23191242 0.7242013
000090 22 24 4b bd 6e ca a1 3f a7 79 90 3e 69 4e 9e 3e
       -0.049595006 1.2639902 0.28217813 0.30919197
0000a0 6f 9b 89 bd ba 21 7c 3b ec f4 9e bd 95 29 28 3d
       -0.067191 0.003847225 -0.07761559 0.04105528
0000b0 52 f8 51 3e ed ba 15 3f 2c 28 5b be 8d a9 80 be
       0.20504883 0.5848835 -0.21402043 -0.25129357
0000c0 19 2b e0 bd 6b 34 08 3e fd 0e 7c bd 67 af cd 3d
       -0.1094572 0.13301246 -0.06153773 0.10043221
0000d0 12 b3 b7 be ec 9b 10 3d e4 b1 86 3e 50 b2 b7 3e
       -0.35878807 0.03530495 0.26307595 0.3587823
0000e0 e9 35 bb 3d a2 f9 29 be 14 47 fe bd ae a7 90 3e
       0.09141142 -0.16599134 -0.12415901 0.2825293
0000f0 02 bb 78 3e 65 a5 00 be 18 ca f9 3e d3 ef 77 bc
       0.24290088 -0.12563093 0.48786998 -0.015132862
000100 2d 3b 53 3e 0b 86 73 bf ff dc ed 3e 56 25 7e 3d
       0.20628043 -0.9512641 0.4645767 0.062047325
000110 09 89 c2 3d 2e fa 82 be 7b be cb bd fc 91 f0 bc
       0.09498794 -0.25581497 -0.09948441 -0.029366486
000120 9d f7 ac be 72 ec d6 bd 09 0a bf bc 19 5c 2a 3d
       -0.33782664 -0.10494317 -0.023320215 0.041591737
000130 88 b1 e9 3c 8f e9 a1 3d 69 75 5b be 8f a9 b5 3e
       0.028527036 0.07905876 -0.21431507 0.35480925
000140 75 c6 b5 3f 13 03 31 bb ab 90 47 c0 2e 6b 47 3b
       1.4201189 -0.002700989 -3.1182048 0.0030428874
000150 7a 94 80 be e3 78 8f bf fc 9f 51 3f b1 46 57 3e
       -0.2511328 -1.1208767 0.8188474 0.2102306
000160 80 1f bd 3e 52 d0 6a bf 69 77 c8 bd 2a f8 94 3e
       0.36938095 -0.9172412 -0.09788401 0.29095584
000170 48 a3 0f bf 0f d6 b9 3e 06 cb 9b bd 7f ef 43 3f
       -0.5610852 0.36296126 -0.07607083 0.7653732
000180 ae 95 2a 3d 31 99 7f bf d2 a7 08 be bd 38 20 3f
       0.041646652 -0.99843127 -0.13345268 0.62586576
000190 b5 28 50 3e 39 1a 1a 3f e2 6d a7 be 51 d7 6b 3f
       0.20328029 0.6019626 -0.3270102 0.9212542
0001a0 3c ea 23 bf e2 9d 2f bf dc 48 f0 3e aa 7e 14 3e
       -0.6402929 -0.68600285 0.46930587 0.14501444
0001b0 f1 6f 12 3e 23 64 9f 3f c9 ae 9d 3f b7 40 43 3d
       0.14300515 1.2452434 1.2318965 0.04766914
0001c0 50 ec 35 be 37 89 de 3d 5c ab 93 be d2 21 50 3f
       -0.17765927 0.108660154 -0.28841674 0.81301606
0001d0 a9 93 a6 3d e5 9e ed 3f a3 b8 19 be 7b 80 7a bf
       0.08133633 1.8564116 -0.1501184 -0.97852296
0001e0 56 51 22 bd ae 3c 2f bc 1f d1 20 3e e7 b8 a1 bd
       -0.03962835 -0.0106956195 0.15704773 -0.078965954
0001f0 99 17 2c be 62 d2 44 bf 19 60 8d 3e 37 7c 93 3e
       -0.16805877 -0.7688352 0.2761238 0.28805706
000200 94 07 3e bb 0b fd 4e 3e 41 f3 80 3e b0 2f 10 3f
       -0.0028996216 0.20213716 0.25185588 0.56322765
000210 71 cf 80 bd 9c 71 4a be df 04 41 3d 9f f0 8c 3e
       -0.06289566 -0.19769901 0.047123786 0.2752733
000220 05 63 fc bd 21 fc 02 be 10 77 ab bd 25 6c 92 3e
       -0.12323574 -0.12791492 -0.08372319 0.28598133
000230 e9 98 35 3e 4e 8b d9 3e 00 58 70 3d 88 42 78 be
       0.17734112 0.42489094 0.058677673 -0.2424413
000240 16 6f f1 be 9d 5c f2 be 33 f7 f0 bb 45 90 53 bf
       -0.47155064 -0.47336283 -0.007353687 -0.8264201
000250 2a 48 69 bd 10 24 99 bf e9 ed 92 3f ea 6e 31 3c
       -0.056953587 -1.196413 1.1478854 0.010829667
000260 aa 17 18 be 5d 8f 2c 3e 60 3c 7d be fd d2 41 3e
       -0.14852777 0.16851564 -0.24730062 0.18928142
000270 db 5e 9c be ee 63 a5 3e f3 0c ad 3e 52 68 87 3f
       -0.3054112 0.32302803 0.33798942 1.0578711

in_ch_lstm.lstm2.weight_hh_l0 f4 [80, 20]
000000 47 a5 15 be 57 5b 37 bf 51 8b c4 be ef 34 a8 3c
       -0.1461383 -0.7162375 -0.3838754 0.020533053
000010 56 eb 71 3d bd bd 38 3e ca fe a1 3e f8 63 9a 3e
       0.059062324 0.1804113 0.316397 0.30154395
000020 74 ab 58 bd e5 5c c2 be 77 98 c4 3e 0d f8 f5 be
       -0.052897885 -0.37961498 0.3839757 -0.4804081
000030 bc 5c 97 be cf d3 c6 3d d2 4c b2 3e b1 17 c8 bd
       -0.29562938 0.09708368 0.34824234 -0.09770144
000040 35 db 6d bc f9 c6 7c bf 57 7e 4c bf a3 66 47 3e
       -0.014517595 -0.9874111 -0.7988028 0.19472747
000050 f1 dc 9a be c5 a1 93 3e b6 67 4a be 58 d9 72 be
       -0.3024669 0.28834358 -0.19766125 -0.23715723
000060 65 e7 99 be 46 35 89 3e 1b db bd 3e ac b8 be bc
       -0.30059353 0.26798457 0.37081227 -0.023281418
000070 61 0d 02 3e 8b ee 83 be 1f 3c 75 bd 4e 59 8d 3e
       0.12700416 -0.2576793 -0.05987179 0.27607197
000080 7c 5b 28 bc aa 9f b4 bd 08 eb e5 3b 48 e4 ed be
       -0.010275718 -0.08819516 0.0070165433 -0.46463227
000090 37 c3 b5 3e 38 a5 cd be b4 9d 18 bf 77 e6 b3 bd
       0.355005 -0.40165114 -0.59615636 -0.08784192
0000a0 23 c0 fc be c7 db 2d 3d 7d a7 dc be 7f a2 b2 be
       -0.4936534 0.042445924 -0.43096533 -0.348896
0000b0 b3 74 bc be e9 dd db 3e 74 3a 46 3e c4 eb 4b be
       -0.36807784 0.42942742 0.19358236 -0.19914156
0000c0 db 47 9b 3e 7c d5 97 be ae 4b 74 be 6e c0 94 be
       0.3032826 -0.29655063 -0.23856995 -0.29053062
0000d0 52 13 35 be b3 f1 41 be e4 f7 39 3e 9a c1 14 be
       -0.17683151 -0.18939857 0.18160969 -0.14526978
0000e0 5f 54 cf 3c c6 70 f0 be 9d 02 c6 be 36 cb 96 3e
       0.025308786 -0.4696104 -0.3867387 0.29451913
0000f0 22 c1 22 be b1 53 ed 3d 6e 49 b0 3d aa 37 00 3e
       -0.15893987 0.115882285 0.086077556 0.12521234
000100 20 e6 e9 3d 90 68 61 be 48 e3 12 3f b0 a0 5a bd
       0.11420846 -0.22012544 0.57378054 -0.0533759
000110 d5 25 cf 3e d6 e7 54 bf 49 cc f9 3d c0 b6 24 be
       0.4045855 -0.83166254 0.121971674 -0.16085339
000120 d4 9c d4 3e 11 bc 9f bd d5 be 9d 3d 4d 0e c5 bd
       0.415259 -0.07799543 0.07702414 -0.09621868
000130 f6 80 84 bd 71 30 30 bf 5b fd 69 bf 08 67 4f be
       -0.0646991 -0.68823916 -0.91402215 -0.20254147
000140 0d 0f 75 bf 4e c4 8d 3e f7 3c f5 be d5 fc e4 be
       -0.9572609 0.2768883 -0.47898075 -0.44724146
000150 3a 18 fb be 5c 3b ec 3e 8a c6 ba 3f 24 2e ee 3e
       -0.4904192 0.46139038 1.4591839 0.46519578
000160 34 fa 3f 3e 62 b9 6a 3e 53 b4 ae 3e c9 6b a8 3c
       0.18747789 0.2292228 0.3412195 0.020559208
000170 09 9a 52 3e d7 10 34 bf 11 d6 05 3f 10 cf d8 be
       0.20566572 -0.70338196 0.52279764 -0.42345476
000180 dc 3f c3 3e 9e 5a bd be 36 6c 53 bf da 76 d9 3e
       0.38134658 -0.36983198 -0.8258699 0.4247349
000190 2c 1d 00 3f 2e 46 a0 3e 5b 25 17 3f 41 02 11 bf
       0.5004451 0.31303543 0.59041375 -0.56644064
0001a0 64 e5 8e 3f f9 24 b7 bd b7 56 d0 3d 3e cb 41 bf
       1.1163754 -0.08942599 0.101727895 -0.7570075
0001b0 4a 44 0b 3e 43 53 79 bf ca b7 08 bf c9 c4 2b bf
       0.13600269 -0.9739267 -0.5340544 -0.67097145
0001c0 32 75 ca 3e 13 27 cb be 9f 65 be bd 61 9a a2 3e
       0.39542538 -0.3967825 -0.092967264 0.31758407
0001d0 41 b4 53 bf 28 57 20 3e 0c 85 3a bf 63 32 04 be
       -0.8269692 0.15658247 -0.72859263 -0.12909846
0001e0 77 f6 13 bf fa 46 85 be 44 77 2e 3e 45 c6 52 bf
       -0.5779795 -0.26030713 0.17037684 -0.82333785
0001f0 d3 c8 e1 3e 71 82 42 3f f9 fb 82 3e d4 d2 04 3e
       0.4409853 0.7598029 0.25582865 0.1297105
000200 14 1c b0 be fa de 2b be 53 7d ae 3c d9 fe f0 be
       -0.34396422 -0.16784278 0.021299994 -0.47069433
000210 b9 bb 36 be 16 94 d8 be cd 4d 87 3d 89 1e 9f be
       -0.17845048 -0.4230048 0.06606636 -0.31077984
000220 46 85 1b be c6 5b 7d be c5 5f a1 bf ea ad dc 3e
       -0.15187559 -0.2474204 -1.2607352 0.43101436
000230 f6 27 68 be 0a ce 9b be 73 1b ae be b9 93 ab be
       -0.22671494 -0.30430633 -0.34005317 -0.3351114
000240 1f 50 d4 3c 37 5e 2c 3e 48 27 32 bf 51 48 8b be
       0.025917111 0.16832815 -0.6959119 -0.2720361
000250 67 29 a7 be c5 fb 57 be 16 54 d2 be 9a 5c be 3e
       -0.32648775 -0.21092136 -0.41079777 0.37180024
000260 eb 24 a6 bd 1f ff 02 be 0c 29 10 3f e6 40 88 be
       -0.0811251 -0.12792633 0.5631263 -0.26612014
000270 a9 29 2f be 16 db 00 3d e4 06 e3 be 3f 57 85 3e
       -0.17105736 0.031458937 -0.44341195 0.26043126
000280 1c c8 70 3d 5c c2 ac be e5 2b d7 be 20 dc 52 bd
       0.05878459 -0.33742034 -0.42025676 -0.05147946
000290 24 72 bf be 5c a9 6f be 4a da 07 bd cb 2b 0e 3f
       -0.3739177 -0.23404449 -0.03316716 0.5553557
0002a0 a3 1a eb be c7 94 52 be 93 ac 34 3f fc 36 31 3f
       -0.4591876 -0.20564567 0.7057583 0.69224524
0002b0 29 fd 96 be d0 bd 11 3e 0a 29 0f 3f 80 4f 4e 3c
       -0.2949002 0.14232564 0.55921996 0.012592196
0002c0 f0 83 a1 3d 38 ee 9c bb 4d 8b 7e 3d cf 5c 53 be
       0.07886493 -0.00478914 0.062144566 -0.20640872
0002d0 de 79 94 3e 87 b5 62 bc b3 8b 02 bf 24 5d 85 3e
       0.28999227 -0.013837225 -0.50994414 0.26047623
0002e0 e9 48 84 bf cf 27 c2 bd b8 e4 a6 3e be 59 dd 3f
       -1.033475 -0.09480249 0.32596374 1.7293012
0002f0 ec e0 1c bf 4f d1 54 3e 7c f9 bb 3e 04 cd 24 3f
       -0.61280704 0.2078297 0.3671378 0.6437533
000300 ac 63 48 bf 1b 25 50 3e 69 cf 58 3f ff e2 c1 be
       -0.7827709 0.20326655 0.8469148 -0.37868497
000310 00 50 53 bd 9a b6 42 bf 20 05 02 3e 8d 76 d5 3e
       -0.051589966 -0.7605988 0.12697268 0.4169201
000320 23 1a 8f be 2f 9b 41 3e d7 29 dc 3d 7b ff a7 bd
       -0.27949628 0.18906854 0.10750168 -0.08203026
000330 8f 79 9e 3d df f6 d7 3e 26 b1 16 3e c2 30 1d be
       0.07738029 0.42180535 0.14716014 -0.15350631
000340 ff 21 09 3f 48 b7 b7 be 30 9f 2d 3d 16 00 89 bc
       0.535675 -0.3588202 0.04238814 -0.016723674
000350 a6 40 2d 3b fd 4d ed bd 82 15 2e 3e f2 cf b6 be
       0.0026436239 -0.11587141 0.17000392 -0.35705525
000360 0d 52 fb 3d bf 5b 3d bf fc 0a b1 3d a8 e4 6e 3d
       0.12271509 -0.7396812 0.08644673 0.058323532
000370 53 eb 31 bf 1a 19 2a 3d fc 5d b9 bd d9 ce db be
       -0.694997 0.041527845 -0.09051129 -0.4293125
000380 fb f7 3b bd 49 bf ac 3e c8 fe 40 3f e8 7b 20 3f
       -0.04589079 0.3373969 0.75388765 0.62689066
000390 87 38 27 3e 9a 77 ec 3d 1b 15 62 bd 58 81 95 bd
       0.16330157 0.1154625 -0.05519591 -0.07300061
0003a0 21 13 8d 3d 05 d6 c0 be bb a5 13 3e 62 21 f6 be
       0.06888414 -0.37663284 0.1441869 -0.48072344
0003b0 62 1e 18 bc f0 bc 77 bf 1b 62 f4 be d7 6b 0e 3f
       -0.009284588 -0.9677267 -0.477311 0.556333
0003c0 9f ea 47 be 9c e2 77 be 32 ca 11 bf 64 fe e6 be
       -0.19523095 -0.24207538 -0.5694915 -0.4511596
0003d0 46 7a 27 bf a4 20 1c be 12 04 d3 3e 0a 72 7a 3f
       -0.6542095 -0.15246826 0.41214043 0.9783026
0003e0 60 23 6d be 9a 64 e9 3e e0 57 d5 3d 88 e5 0d 3f
       -0.23158026 0.45584565 0.104171515 0.5542836
0003f0 79 55 9b be 66 35 4c 3d 28 28 20 3f 12 8e a4 be
       -0.30338648 0.049855612 0.62561274 -0.3213964

in_ch_lstm.lstm2.bias_ih_l0 f4 [80]
000000 f8 18 0a 3c 1f 0b 4b 3f 4a 36 02 3f 07 d7 33 3e
       0.008428805 0.79313844 0.5086409 0.17562495
000010 ba bb 1a be 8f 0b 96 be b9 5a b3 be 8d 93 20 be
       -0.15110675 -0.29305694 -0.35030153 -0.15681286
000020 11 24 e2 3d 2b e2 9d be 83 9a 03 3d c9 ec 50 3c
       0.11042035 -0.30836615 0.032129776 0.0127517665
000030 8e 47 6a be 43 1d 51 bd 5b de b5 be c1 df 96 be
       -0.22878858 -0.051053297 -0.35521206 -0.29467586
000040 4f 96 da be 72 97 3c bf d4 b4 33 3e d5 4c 3a be
       -0.426928 -0.7366859 0.17549449 -0.18193372
000050 91 d2 07 be 2c 81 51 bf 79 46 3f be 9a 86 83 be
       -0.13263918 -0.81837726 -0.18679227 -0.2568863
000060 4a 2a 65 bf 99 10 16 3e 54 1b 75 3e f6 49 b8 be
       -0.89517653 0.14654769 0.23936206 -0.35993928
000070 a7 62 5f bf 4b 05 a0 3c 31 df 0b 3e f2 93 e9 be
       -0.87259907 0.019533774 0.1365936 -0.45620686
000080 02 c4 07 3e 9b 4b d1 be 77 3a 4b 3e e7 bd 33 be
       0.13258365 -0.40877995 0.19846521 -0.17552911
000090 42 96 0d bf 71 48 a4 3e 2b 69 eb 3e c2 8a 18 bf
       -0.553074 0.32086518 0.45978674 -0.5958673
0000a0 f4 78 fb 3d 50 d5 0d bd 99 c8 da bd 05 3e e4 bc
       0.12278929 -0.03462726 -0.10682792 -0.027861604
0000b0 3c 73 44 bd 4d a0 54 bb 28 6b c0 bb 57 ba fc 3d
       -0.04796146 -0.003244418 -0.005872149 0.12340229
0000c0 7f 7e f0 bd 70 a2 0b bd ea 45 31 be f3 9a d0 bd
       -0.11742877 -0.03409046 -0.17311826 -0.10185804
0000d0 66 3f 35 3b fe 79 1e be cf 81 3f bd ac b5 6a bd
       0.0027656197 -0.15476224 -0.046754654 -0.057302162
0000e0 77 21 a7 3d fb a6 e3 3d 1d 5b df bd ce 70 b0 3b
       0.0816068 0.11115833 -0.1090605 0.005384541
0000f0 d3 79 3c 3e 3f 96 c7 3e 8a 82 8d bb c2 a0 31 be
       0.18405847 0.38981816 -0.00431854 -0.1734648
000100 9d d4 52 3e f5 ac 57 bd e3 3c 08 3e 33 0b e5 3e
       0.20588918 -0.05265518 0.13304476 0.44735107
000110 e5 c6 3b 3e e5 6a 70 3c 9c 87 db 3e 95 bf 20 3d
       0.18337591 0.014673923 0.428769 0.039245207
000120 32 fd 5c bc 54 02 17 be bd 34 09 3e 63 d4 3c be
       -0.013488101 -0.14746982 0.13399024 -0.18440394
000130 76 99 78 bc 9d 77 98 3d 7d 28 3a 3e df 77 75 be
       -0.015173307 0.074446894 0.18179508 -0.23971508

in_ch_lstm.lstm2.bias_hh_l0 f4 [80]
000000 29 bf 09 3e 0b 15 47 3f ca 13 c9 3e fb dd 88 bd
       0.13451828 0.77766484 0.3927291 -0.066829644
000010 b1 c7 11 be 01 88 1d bf 75 49 a8 be 9c 0c 1b be
       -0.14236332 -0.6153565 -0.32868543 -0.15141529
000020 8b 65 14 3e 84 08 b1 be 9c ef 32 3e 53 df 19 bc
       0.1449186 -0.3457681 0.17474216 -0.009391624
000030 a8 3f aa be be 81 34 3e d2 0c 41 be 99 a4 6e be
       -0.3325169 0.17627618 -0.18852547 -0.23304977
000040 86 d6 14 be 14 55 c2 be 50 39 88 3e a0 43 73 bc
       -0.14534959 -0.37955534 0.26606226 -0.014847666
000050 0a 67 a5 be 9d 5b 47 bf 5d ec 92 be 24 43 ae be
       -0.32305175 -0.77874166 -0.28695956 -0.340356
000060 85 f2 77 bf 03 6e b0 3e e9 86 f4 bd ee 73 27 be
       -0.9685443 0.34458932 -0.119397946 -0.16352817
000070 47 4e 43 bf 8d b9 47 be aa ce dd 3d ef 3d 41 bf
       -0.76291317 -0.19504376 0.10830434 -0.7548513
000080 03 46 27 bd dd a3 80 be 1e 43 ad 3e e7 f0 da be
       -0.040838253 -0.25125018 0.3384027 -0.4276192
000090 da 81 fd be f7 76 ad 3e df 2e d8 3e 2c dc 09 bf
       -0.4951313 0.33879825 0.4222326 -0.5385158
0000a0 7a ea 19 be 15 36 da 3c 19 84 a4 3d be 23 b5 3c
       -0.15030852 0.026637116 0.08033008 0.02211177
0000b0 e4 4b 6f 3d 70 09 a5 bb 54 d2 d1 bb 3f b5 0b be
       0.058421984 -0.0050365254 -0.006403247 -0.13643359
0000c0 2d 0c de 3d 8f 61 6a 3d 04 72 27 3e c6 28 e8 3d
       0.10842166 0.057221945 0.16352087 0.11335902
0000d0 02 10 b0 bc 07 24 1b 3e c4 88 1c 3d c6 56 8e 3d
       -0.021492008 0.15150462 0.038216367 0.069501445
0000e0 fa 40 b6 bd a9 ac f4 bd 4d 70 f4 3d 6a d2 0b bd
       -0.08899112 -0.11946995 0.11935482 -0.034136213
0000f0 2a e8 8f 3e ee ff 29 3f 94 29 7d 3e 5d 6c 93 3d
       0.28106815 0.6640614 0.24722892 0.07198403
000100 a4 3f b3 3e ef b6 0b be d1 75 31 be fe 81 ab 3d
       0.3500949 -0.13644002 -0.173301 0.083744034
000110 e7 53 e2 3e 36 58 06 3e e6 03 80 3e b7 21 db 3e
       0.44204637 0.13119587 0.25002974 0.4279916
000120 b5 84 2c be 54 cd 7e bd 50 8c bf 3d d8 4b 31 3d
       -0.16847499 -0.062207535 0.09352934 0.04328522
000130 53 f7 e3 bd 42 ac 7a be 06 ca a0 3e 0c d8 9c be
       -0.11131158 -0.24479774 0.31404132 -0.3063358

in_ch_lstm.lstm2.weight_ih_l0_reverse f4 [80, 2]
000000 de fc 5b be da 11 01 3f 69 7d 67 3e 65 c7 00 3e
       -0.2148318 0.50417864 0.22606434 0.12576063
000010 b1 66 b3 ba a6 17 14 3e db 12 6d 3e 1f 4d 67 bf
       -0.0013687221 0.14462146 0.23151724 -0.9035205
000020 20 b5 90 3e 6f 2d a2 3f fc 26 3e bf 0e b6 0a be
       0.28263187 1.2670115 -0.74278235 -0.13546011
000030 c7 6c 8d bd 22 e0 6b 3c c2 9e 00 be 70 4a 31 3b
       -0.06905513 0.014396699 -0.12560561 0.0027052425
000040 75 6e 0f 3d c1 fa 0f 3f 26 8d 3b 3e be 7e 62 3c
       0.03501745 0.56241995 0.18315563 0.013824163
000050 b5 0e 24 bd 9d 79 33 bd 1e a5 1c 3f 81 57 c7 be
       -0.04005309 -0.04381715 0.6118945 -0.38933948
000060 c2 f6 0b bc 5e fe 6e 3e 20 b5 ba 3d 99 ce e3 bd
       -0.008542718 0.23339221 0.09116578 -0.1112339
000070 b4 dd 4a 3e 5a ff ce be d7 43 2c 3e 26 cf 23 be
       0.19811136 -0.40429193 0.16822754 -0.1599699
000080 28 ae 6c bc 81 4d de be 7b cf 87 be d9 e5 ae 3f
       -0.014445819 -0.43418506 -0.26525483 1.3663894
000090 18 ef 05 bf 75 fd 45 3d 10 93 97 be 77 7a 1c bf
       -0.52317953 0.04833742 -0.29604387 -0.61124367
0000a0 03 b0 a5 be d5 d2 2b bf c3 94 41 3d 80 5a 0e 3d
       -0.3236085 -0.6711858 0.04726101 0.034754276
0000b0 1d cd e9 be 3f 1e 3b 3c f5 39 7b 38 20 ef 90 3d
       -0.45664302 0.011420785 5.989704e-05 0.070768595
0000c0 78 96 17 3f 1a d0 52 be dd 47 00 3e ad 16 74 bd
       0.5921397 -0.20587197 0.12527414 -0.059591938
0000d0 92 3b 1d be 47 6b 1d bf 99 34 d2 3d fd 81 37 bd
       -0.15354756 -0.6149182 0.102639385 -0.0448017
0000e0 e9 6f d2 bd e5 f0 8d be dc 79 7d be da 77 a9 3c
       -0.102752514 -0.2772285 -0.24753517 0.020687032
0000f0 3f 5b cb 3d 31 10 a7 3a 8c 3a d7 be 88 67 24 bf
       0.09929513 0.0012745914 -0.42036855 -0.64220476
000100 45 e6 93 3e 42 09 3a 3c 0e aa a5 bd ac 92 eb 3d
       0.2888662 0.011354746 -0.08089076 0.11502585
000110 01 dd cc bd 48 0e 8e be 82 ca ad 3a ae af 3a 3e
       -0.10003091 -0.2774527 0.0013259205 0.18231079
000120 60 77 47 bb d1 26 7c 3f 7a b4 e1 3c 4c d2 22 bf
       -0.0030436143 0.9849673 0.027551878 -0.6360214
000130 a0 90 a5 3d c9 23 42 bd d8 3d 57 bc e4 74 91 3c
       0.08084226 -0.04739741 -0.013137303 0.017755933
000140 cd f7 42 3c 2c df e3 be 6b 1b 86 bf 94 8e ac ba
       0.011899901 -0.44506204 -1.0477117 -0.001316505
000150 25 8a 32 40 86 89 8b bc d4 b7 72 3e b3 2e 37 bf
       2.7896817 -0.01703335 0.23702937 -0.7155563
000160 03 f9 7e 3b a8 1b 22 c0 da f8 3b 3f 73 2c d0 bd
       0.0038905747 -2.532938 0.7342659 -0.10164728
000170 f2 b8 e0 be 98 c0 23 be c0 f8 6b 3f 99 b5 40 bd
       -0.43891102 -0.15991437 0.9217644 -0.047048185
000180 c0 47 ec be e1 23 96 bf af a5 71 3f fc 44 ce 3d
       -0.4614849 -1.1729699 0.9439344 0.100717515
000190 d3 4c 08 bf 2a e9 8f 3b 03 84 1b bf 5a 27 d4 3e
       -0.53242224 0.004391809 -0.6074831 0.41436273
0001a0 a0 cf 39 3d 41 13 9a bd 34 b3 fe 3e 7b fb 53 bf
       0.045364022 -0.07523204 0.49746096 -0.82805604
0001b0 c3 1c 9b be 63 a1 46 be 1f 03 c0 be 1b 1c 7d 3f
       -0.3029538 -0.19397502 -0.3750238 0.9887101
0001c0 94 04 00 3e c4 21 b3 3f 94 66 d7 be 6e de 02 40
       0.12501746 1.399468 -0.42070448 2.044826
0001d0 f3 96 11 c0 d8 6f 0d bc 2b bd fb be d5 44 86 bf
       -2.2748382 -0.008632623 -0.4916776 -1.0489756
0001e0 63 8d 8b bd 5d 8a 95 3d ef 6b be be 72 44 b7 3a
       -0.06814077 0.07301781 -0.37191722 0.001398219
0001f0 81 d0 15 3f 3f f2 51 3e 1a 72 50 bd 65 b5 09 3e
       0.58521277 0.20502566 -0.050890066 0.13448103
000200 ff 94 82 3e 69 d2 93 bc bf 43 07 3e 2a 83 bf 3e
       0.255043 -0.018044667 0.13209437 0.37404758
000210 5d e0 69 3e b3 34 10 be 9d 15 78 3d 38 d6 a4 3d
       0.22839494 -0.14082603 0.060567487 0.080486715
000220 ae 80 c2 3d 45 a5 7f bd 49 a1 ce be eb 44 15 be
       0.094972 -0.062413473 -0.40357426 -0.14577071
000230 ae 7a 35 3e 64 5b d9 bd aa a5 10 3f 5f 89 a1 be
       0.1772258 -0.106131345 0.56502783 -0.31550118
000240 fc 6a f7 bd 1c b3 18 be 26 77 04 be 0d 48 4e 3e
       -0.120809525 -0.14912075 -0.12936077 0.20144673
000250 9d b6 14 bd 69 80 54 3e f6 19 77 bd 43 80 8f 3d
       -0.036306966 0.2075211 -0.060327493 0.07006886
000260 73 89 71 3f 21 05 25 3f d6 44 a9 bd df 39 ea 3d
       0.94350356 0.6446095 -0.082650825 0.11436819
000270 43 fa 11 3d 30 0d 29 bd 34 6d ae 3c 84 e8 19 3d
       0.03563906 -0.041272342 0.021292306 0.03757526

in_ch_lstm.lstm2.weight_hh_l0_reverse f4 [80, 20]
000000 3d cb 9e 3e e1 ef bd bd da 16 2a bf a2 5e 44 bf
       0.31014434 -0.09274269 -0.6644112 -0.767069
000010 97 3e 3a 3e 47 55 bc be 2f f0 e5 be 9b f5 13 be
       0.18187939 -0.3678381 -0.44909808 -0.1444916
000020 57 57 26 be b5 cb f6 bd 0e b8 0b 3e 41 1a e1 3d
       -0.16244255 -0.12050573 0.1364443 0.10991336
000030 b2 b6 be bd 93 15 3d 3d 68 00 75 bf d6 fe 5a 3e
       -0.0931219 0.046163153 -0.95703745 0.21386275
000040 e2 85 34 bf 30 cf b6 3c 67 b3 de 3e 6e 46 3b 3d
       -0.7051679 0.022315592 0.43496248 0.045721464
000050 e1 1c ff bd 0b ee eb bd 4a 04 08 bd b7 50 a2 be
       -0.1245668 -0.115200125 -0.033207215 -0.31702206
000060 0e fd df 3e 95 35 9f 3d 4c 7b bb 3e 23 bb 55 3d
       0.43747753 0.07773892 0.36617506 0.05218042
000070 fb d1 39 be 7f 17 df 3d 38 65 97 3b de 0c 2a bd
       -0.18146507 0.108931534 0.0046202205 -0.041516177
000080 7b 90 17 3c dc 6c a5 be 83 99 d4 bd 9f 56 fe 3e
       0.009250755 -0.32309616 -0.103808425 0.49675462
000090 84 5b c2 3e e7 d5 46 bd 99 9d 05 be da eb 59 bf
       0.37960446 -0.048543837 -0.130484 -0.85125506
0000a0 a7 7e 08 bf d0 6c 96 3f 03 24 2e bf b9 22 00 3e
       -0.53318256 1.1751957 -0.680237 0.12513246
0000b0 3c 44 f6 3e 23 f9 56 be cf 98 e6 3e 75 05 b2 3d
       0.48098934 -0.20993476 0.4503846 0.08692447
0000c0 ff c4 b9 3f c6 55 55 3e 2b 14 0b 3e bd 07 87 3e
       1.4513243 0.20833501 0.13581912 0.2637309
0000d0 5e c1 1d 3f f9 18 0e be 3d 98 59 3f 1e f1 2d 3e
       0.6162318 -0.13876714 0.8499792 0.1698651
0000e0 c5 19 04 3f 7f ed 5a bf 1a 53 b3 be 3c b3 96 3b
       0.5160182 -0.8551864 -0.3502434 0.004599003
0000f0 1d 1c a3 3d 72 12 00 3f 2b 09 5d bc 75 37 84 ba
       0.079643466 0.50028145 -0.013490955 -0.0010087328
000100 0e 41 59 be 48 a3 02 bf 99 6d 0c 3e c0 59 19 be
       -0.21216223 -0.510304 0.13713683 -0.14975643
000110 98 4a 3d 3c b8 e6 99 be 6d 4d a5 3e 73 d8 8a 3d
       0.011553429 -0.30058837 0.32285634 0.06779566
000120 cf 48 f9 3e 95 d5 8c be a7 df c9 3e ad 9a 9f 3e
       0.4868836 -0.275067 0.39428446 0.31172696
000130 da 04 13 be 57 77 7a 3a 4f ff 25 be 2d 49 3f bf
       -0.1435732 0.0009554526 -0.16210674 -0.7472103
000140 80 da f7 be 0e cb 97 3f b4 47 11 c0 32 a3 48 bf
       -0.4840889 1.1858842 -2.2700014 -0.78374016
000150 f0 59 d1 3f 9c 89 14 bf 0a d2 f6 3e e0 14 90 bd
       1.6355572 -0.58022475 0.48207122 -0.070352316
000160 2c 52 dc 3f 98 b9 90 be 7e fc 80 3f b1 46 83 be
       1.7212577 -0.28266597 1.0077055 -0.2563987
000170 85 e7 0b 3f 77 f3 04 3e cb c1 ad 3e ba e7 9c 3d
       0.54650146 0.129835 0.33936915 0.07661386
000180 05 09 d6 3e d3 20 ac bf 95 cc 79 bd 60 02 c7 3e
       0.41803756 -1.3447517 -0.06098612 0.38869
000190 c3 39 8a 3d 46 6d ac bb 23 8e 64 bc 37 3f 68 3e
       0.067492984 -0.00526205 -0.013949904 0.22680365
0001a0 c2 a8 70 3e 00 cf 8e 3e c8 16 e9 be 9f 56 0d 3f
       0.23501876 0.27892303 -0.45525193 0.552103
0001b0 e7 50 02 bf 2a de 0b 3f 6c a5 21 be ae d1 93 be
       -0.509047 0.5463587 -0.1578576 -0.2887091
0001c0 21 9e 7a bd fe 12 c0 3e 9f ee b9 be 46 b2 e1 be
       -0.06118596 0.3751449 -0.36314866 -0.44081324
0001d0 0d 24 a6 be b1 9d b6 be 4f e1 8c be 1b bf 38 be
       -0.3244938 -0.35667184 -0.27515647 -0.18041651
0001e0 1c 52 25 3e 4c 51 51 3f 30 78 3e bf 56 b7 f0 bc
       0.16144603 0.81764674 -0.7440214 -0.029384296
0001f0 b2 30 32 bf 08 b5 ad be 3b e9 0f 3e 90 f7 2c be
       -0.69605553 -0.33927178 0.14053814 -0.16891313
000200 6d b4 1c 3f 8e 10 af be 34 9d 33 3e 81 89 0e 3f
       0.6121281 -0.34192318 0.17540437 0.55678564
000210 7d 57 8a be ef d6 e5 bc c0 0f f7 3e 92 48 0b 3f
       -0.27019873 -0.02805659 0.48254204 0.5440761
000220 37 38 53 be 8a 1a 85 be d2 82 06 3e bc 1d 42 3e
       -0.20626913 -0.2599681 0.13135841 0.18956655
000230 49 af 32 be 6c 04 0d 3f e8 34 e3 be c9 6b f5 3d
       -0.17449678 0.5508487 -0.44376302 0.11983449
000240 13 b1 86 bd 28 12 aa bd 5f 42 82 be b6 96 12 be
       -0.06576743 -0.08304244 -0.25441262 -0.14315304
000250 c7 bb 77 3e a3 9e 03 be 9e 66 04 be 19 3a d9 bd
       0.24192725 -0.12853484 -0.1292977 -0.106067844
000260 9e 6d b0 be 92 7c 0b bf 15 6f 5c 3e 6d 10 01 3f
       -0.3445863 -0.54486954 0.2152675 0.5041569
000270 fc fa b1 3d c3 69 50 3e 8e 5d 80 bd 69 21 0d bd
       0.086904496 0.20352845 -0.06267844 -0.03445569
000280 03 ea b6 3e 06 9e a7 3e 97 0a ba 3e 22 30 2f bf
       0.35725412 0.3273775 0.36336204 -0.6843282
000290 3d 4a e7 3e 78 94 c6 3e 71 a0 1b be 12 56 89 3d
       0.45173827 0.38785148 -0.15197922 0.0670587
0002a0 91 7b 1c bf 49 a9 46 be 21 bf cd be 21 73 c8 3e
       -0.6112605 -0.19400515 -0.40184882 0.39150336
0002b0 89 5b 84 3e dc b0 49 bf 82 c0 6d bd 4b 90 41 3f
       0.25851086 -0.7878549 -0.058044918 0.756108
0002c0 15 d3 be 3e 87 04 05 bf bc af ef be b5 76 9a bf
       0.37270418 -0.51960033 -0.46813762 -1.2067477
0002d0 46 4f 19 3e 96 47 42 3e 56 dc ab bd d8 cd 92 3e
       0.14971647 0.1897262 -0.08391635 0.2867267
0002e0 2f ac 28 3d 77 d6 89 3e c8 d7 b8 3a ab a9 23 3e
       0.041179832 0.26921436 0.0014102394 0.15982692
0002f0 81 4d 8d bd 72 3a a6 3d e6 c5 e5 be 06 4c c4 3e
       -0.06899548 0.08116616 -0.44877547 0.3833925
000300 11 6c 05 3e 7e 66 3b be a4 ab c1 3d cd 93 69 be
       0.13029505 -0.18300816 0.09456566 -0.22810288
000310 8c 0d 58 bf 63 f3 47 bf b6 ba 17 bf 27 8b 36 bf
       -0.8439567 -0.78105754 -0.59269273 -0.7130608
000320 78 da c1 3c e0 f1 73 3e d2 fd 25 3d ba e0 3b be
       0.023663744 0.23822737 0.040525265 -0.18347445
000330 88 dd 82 be e2 6a ee be 13 24 8f 3d 26 9c 8f be
       -0.2555964 -0.4656592 0.069893025 -0.2804882
000340 bc f4 ae be 79 d9 5f be a5 72 e6 3e a8 d8 24 bf
       -0.34171093 -0.21860303 0.45009342 -0.6439309
000350 69 be cd be 78 21 63 bd 6b ab 0a 3d 5e 3f d0 3d
       -0.40184334 -0.05545184 0.033854883 0.10168336
000360 96 46 48 be 3a 86 62 3e c6 0d a4 3e 5f 49 a7 3e
       -0.19558176 0.22121516 0.32041758 0.32673165
000370 04 ec fd be 44 34 72 3e 8e d1 f6 be 9b 5c 86 3f
       -0.49594128 0.2365275 -0.48206753 1.0497011
000380 d9 e7 04 3f 27 a6 e5 be a4 46 97 3e b4 2c 09 3f
       0.5191627 -0.44853327 0.29546082 0.53583837
000390 8a 4f 5d 3f e6 85 54 3c 58 eb ef be 04 f0 1a 3f
       0.8644949 0.012971377 -0.4685924 0.60522485
0003a0 39 78 70 3f dd f4 73 3f 6c 61 98 3d a2 e3 57 be
       0.93933445 0.95295507 0.07440457 -0.21082929
0003b0 c8 67 3d bf 9b e5 33 bf 2b 33 aa be 0a a0 e3 be
       -0.7398648 -0.70272225 -0.33242163 -0.44458038
0003c0 b0 6d 2e bd bc 2b cd 3d 36 4b 0b bf ed 43 db be
       -0.042585075 0.10018107 -0.5441164 -0.4282526
0003d0 8d 26 14 3f e6 e7 42 bf 0e b7 e9 be 48 e0 9e 3e
       0.57871324 -0.761351 -0.45647472 0.31030488
0003e0 87 4c 3a bd 4d a8 5f 3e 5d 09 32 3e 2f 4f 67 bf
       -0.04548314 0.21841545 0.17386384 -0.903552
0003f0 68 4b 54 3d d7 27 18 3f 89 da 87 be 77 46 2a 3d
       0.051829726 0.5943579 -0.26533917 0.041571107

in_ch_lstm.lstm2.bias_ih_l0_reverse f4 [80]
000000 e6 a3 ce be 14 3b 80 3e 72 35 6a 3f f1 fd 34 be
       -0.4035942 0.25045073 0.914878 -0.17674996
000010 67 2c a7 3d 5c 15 6b be 96 65 3f 3e c3 c2 6e 3e
       0.08162766 -0.22957367 0.18691096 0.23316483
000020 92 5a c9 bd 0f dd 96 3e 78 de b6 3d 6b 65 82 be
       -0.09831728 0.2946553 0.08929151 -0.25468
000030 35 20 17 bf 5d bf e8 3e 6a 5d 9e 3d 59 2e 14 3f
       -0.5903352 0.454585 0.07732661 0.5788322
000040 73 66 87 3e 3c d8 9d be 2a 7a 06 be d0 fa c8 be
       0.2644535 -0.30829036 -0.1313254 -0.39253855
000050 aa 93 e1 3c e9 ec ce bd d1 91 c6 bd 30 66 ec be
       0.027536232 -0.10103781 -0.09695781 -0.46171713
000060 5a a2 96 3e 06 a9 28 bf 61 66 a9 be 0a 1d 30 bf
       0.2942074 -0.6588291 -0.3308592 -0.6879431
000070 04 c3 ba be 68 3c c6 be a9 52 65 bf 9c c9 8b 3e
       -0.3647691 -0.3871796 -0.89579254 0.27302253
000080 f1 44 b7 3e 67 89 c7 be 28 2f 56 be 40 c4 a3 be
       0.35794786 -0.38972017 -0.20916426 -0.31985664
000090 a8 10 04 3e fa 18 0a 3f 38 20 ac bc 4c e3 96 3d
       0.12896979 0.5394436 -0.021011457 0.07367572
0000a0 55 39 b3 bd 34 a5 da 3c 3c 43 39 3e 81 c9 8c 3d
       -0.087511696 0.026690103 0.18092054 0.06874371
0000b0 f5 26 75 bd 65 3c c2 3d c3 b0 5e 3d 2d a4 0d 3e
       -0.059851605 0.094841756 0.05436779 0.1383216
0000c0 16 4c 84 3c 1c 7b 1b be 0e 53 e5 3c 72 42 66 bc
       0.016149562 -0.15183681 0.027993705 -0.014053928
0000d0 1e 78 cb bd cc 40 ee 3d 1c ca 4e bd be 8d 25 3e
       -0.0993502 0.11633453 -0.050485715 0.16167352
0000e0 c4 53 10 3d 75 e8 15 bd be 07 36 3d 9f 1c 08 3e
       0.035236135 -0.03659864 0.044440977 0.13292168
0000f0 db 80 00 3e ab ad fd 3d 98 94 71 bc 0b 95 fd bd
       0.12549154 0.1238664 -0.0147449 -0.12381943
000100 15 f2 08 3f 8a a0 a0 b7 51 36 55 3e 91 c1 29 3e
       0.5349439 -1.9148243e-05 0.20821501 0.16577746
000110 88 a3 8a 3e 0c af 96 3e 72 d5 b0 3e 1d 1e 87 3d
       0.2707789 0.29430425 0.34537846 0.065975405
000120 b7 dc ad bd d6 67 51 3e 49 a9 02 3f ab 4e 00 3f
       -0.08489364 0.20449767 0.5103956 0.5012004
000130 63 7c 1a 3e 8a 85 10 3f ab d2 99 3e 89 1b af 3e
       0.15086512 0.56453764 0.3004354 0.34200695

in_ch_lstm.lstm2.bias_hh_l0_reverse f4 [80]
000000 0d f1 ad be 73 d4 bd 3e f2 03 91 3f 3b f6 d5 be
       -0.3397297 0.37076148 1.1329329 -0.4178942
000010 76 31 17 bc dc 3f e9 bd b4 c4 6d 3e 9a 1f f4 3e
       -0.009228101 -0.11389133 0.23219568 0.4768036
000020 c7 e5 13 be 0c b0 04 3f 44 f6 5d 3e d1 7e 71 be
       -0.14443122 0.51831126 0.21675974 -0.23583533
000030 a5 58 da be d4 e3 68 3e 0f f6 e0 3d 0b c7 0a 3f
       -0.42645755 0.2274316 0.10984432 0.54209965
000040 fd 87 97 3e c0 cf c7 be c1 16 58 be a5 16 f4 be
       0.29595938 -0.39025688 -0.2110243 -0.47673526
000050 43 d3 42 3e e6 bc 92 be 05 80 ae be 6a f9 f1 be
       0.19025902 -0.28659743 -0.34082046 -0.472606
000060 da fb b9 3e 1d 64 15 bf 5d 67 19 bd 28 73 25 bf
       0.3632496 -0.58355886 -0.03745209 -0.6462884
000070 14 f6 c3 be ad 99 aa be 70 32 7a bf eb 09 fc 3e
       -0.3827368 -0.3332037 -0.9773321 0.49226317
000080 20 2a c4 3d 3b 15 a4 be 17 e7 92 be 01 d7 19 bf
       0.09578347 -0.32047448 -0.28691933 -0.60093695
000090 a7 81 9b be ef ca 30 3f 6f b9 f1 3d f5 0e 37 bd
       -0.30372354 0.6905965 0.11802947 -0.044692
0000a0 a2 1a a2 3d b8 a5 8a bd 61 2d 4d be 38 e0 85 3a
       0.07915236 -0.067698896 -0.20036842 0.0010213917
0000b0 b9 84 26 3d 6d 41 69 bd e1 d9 a7 bd d3 0c 20 be
       0.040653918 -0.05694716 -0.08195854 -0.15629892
0000c0 ea 65 01 3c 45 32 09 3e 08 6a 5f bd f6 69 9b 3b
       0.007897833 0.13398083 -0.05454448 0.004742856
0000d0 71 d2 19 3e e8 86 20 be 3e 22 6d 3d bd 2c 3e be
       0.15021683 -0.15676463 0.057893984 -0.18571754
0000e0 fc d6 5d bd f6 4f d2 3c 03 17 35 bd 42 46 dc bd
       -0.054160103 0.025672894 -0.0442114 -0.10755588
0000f0 b6 48 32 3e 18 0a 93 3e 99 98 bb 3e e9 61 68 bd
       0.1741055 0.28718638 0.3663986 -0.056734
000100 8f 61 79 3e 16 f4 79 3d 30 a7 3a bd dc fd cd 3e
       0.24353622 0.061023794 -0.0455696 0.40232742
000110 f4 2a 0e 3e 7c 84 8f bc 74 ff 82 3e cb 7c 81 bd
       0.13883573 -0.017519228 0.2558552 -0.063226305
000120 b1 60 ee 3d 45 50 33 3e fb 2d b7 3e fb 5b ab 3e
       0.11639536 0.17511089 0.35777268 0.33468613
000130 e4 93 2a 3e a1 ce 43 3f 9f 21 8d 3e 2f a3 1e 3f
       0.16657978 0.76487166 0.27564713 0.6196775

in_ch_lstm.linear.weight f4 [20, 40]
000000 00 5f 20 be 66 fb b5 bd b0 76 ff be de 2a 3d 3e
       -0.1566124 -0.08885841 -0.4989524 0.18473384
000010 e8 f0 b9 bd 37 a1 f4 bc dd 34 47 3d e0 18 6a 3e
       -0.09079152 -0.02986203 0.0486344 0.22861052
000020 9e 90 8c be ce 2e 85 be 74 dc b7 3d 09 98 2c be
       -0.27454084 -0.26012272 0.08977595 -0.16854872
000030 1d 14 11 be 37 b1 a1 3e d1 73 70 3e a0 92 bc 3d
       -0.14167829 0.31580517 0.2348168 0.09207654
000040 5a 2b 4d be ec 5d ef 3d 70 1e ab 3d ae 89 d2 be
       -0.20036069 0.11687836 0.08355415 -0.41120666
000050 ac a2 f9 3d fc 28 50 be 90 27 4b 3e 14 35 9a bd
       0.1218923 -0.20328134 0.1983931 -0.07529655
000060 9b b7 54 be 4b 0e ff 3d c9 2b 7d be 8f 6b c5 3d
       -0.20773165 0.12453898 -0.24723734 0.09639656
000070 2a 03 c1 be 37 fe 73 3e e9 cf 8e be 3f 12 16 be
       -0.37697726 0.23827444 -0.27892998 -0.14655398
000080 89 cd b2 bc d8 ba 78 bd 78 4c cc be 12 0a 33 3e
       -0.021826522 -0.060725063 -0.3990209 0.1748431
000090 d0 54 96 3e 66 61 43 3e 7f da 2c 3e 31 99 ef bd
       0.29361582 0.19080123 0.16880225 -0.11699141
0000a0 f4 ab 01 be 18 0c 05 3f 60 87 f4 bc 36 9e 70 be
       -0.12663251 0.5197158 -0.029849708 -0.23497853
0000b0 b2 52 88 bc db e5 db 3d 3b c2 21 3e e1 0c 5e 3d
       -0.016640995 0.10737201 0.1579675 0.0542115
0000c0 68 30 f8 3e c2 6a 41 3e a1 2d bb be a4 d6 8a 3d
       0.4847443 0.18888381 -0.3655825 0.06779221
0000d0 5a 2c a9 3e a4 65 ee bc 6c a0 0c bd 8c c9 dc be
       0.3304165 -0.0291012 -0.034332678 -0.43122518
0000e0 e6 db 8d 3e 95 f1 44 be a1 d8 86 bd 7a 96 ac 3e
       0.27706832 -0.19232781 -0.065842874 0.33708555
0000f0 9c 70 fc 3c ea cf a4 3e 7e 6c 4a bf 7b 5d 42 bd
       0.030815415 0.32189876 -0.79071796 -0.04745243
000100 66 92 ea 3e a7 42 70 be 70 68 d4 3e f7 9d a7 be
       0.45814818 -0.23462926 0.4148593 -0.32737705
000110 07 fe 6d 3e 83 c1 0f bf 4a df e4 3e a6 6f 06 3e
       0.23241435 -0.5615465 0.44701606 0.13128528
000120 8f 79 c4 bc 8c 09 97 bd 25 86 5d 3e 50 3c 68 bd
       -0.023983745 -0.07374868 0.21633203 -0.056698143
000130 ce a4 1e be d3 2d f7 bd ed b7 6f 3e 6a b1 a1 3e
       -0.15492555 -0.12069287 0.23410006 0.3158067
000140 d8 30 be bd be ee 0f 3e 70 c7 20 be 66 8a 86 3e
       -0.0928666 0.14055917 -0.1570108 0.26277465
000150 9b ca d2 3d 21 bd 63 bd 95 dc 84 3e bc be ea bd
       0.1029255 -0.05560029 0.2594954 -0.11462161
000160 22 17 3f 3e 6f d0 6b be dd e3 00 3d 1b b9 be bd
       0.18661168 -0.2302873 0.031467307 -0.0931265
000170 35 52 96 3d 39 1a 91 3e 01 5a 9f 3e 4f 2f da be
       0.073398985 0.2834032 0.31123355 -0.4261422
000180 f7 46 70 3d 8b a4 ca bd b2 51 d5 bd e3 ad 5f bd
       0.058661427 -0.09894665 -0.10415973 -0.05460919
000190 73 26 c2 3e 60 0c c0 be b4 92 a3 3e 9b c3 32 3e
       0.3791996 -0.3750944 0.31947863 0.1745743
0001a0 44 23 98 be 9f 1a bd 3e 6a c5 e4 be 29 ad 60 3d
       -0.29714406 0.36934373 -0.44681865 0.05485264
0001b0 63 68 f3 3d 94 40 b7 3b 85 24 0f 3e 33 80 45 3e
       0.118851446 0.005592415 0.13978775 0.19287185
0001c0 8d 25 d9 bc 8e 89 15 3e af 62 2d 3e a5 04 bd be
       -0.026507163 0.14603254 0.16932176 -0.36917606
0001d0 67 71 e9 3e 72 bd 25 3e 58 1f 3b be 44 99 47 bd
       0.45594332 0.16185549 -0.18273675 -0.04873015
0001e0 a7 21 e4 3d 41 9e b6 3e 65 d1 71 bd 66 05 8b 3e
       0.11139231 0.35667613 -0.059037585 0.27152556
0001f0 36 a8 b1 be e1 8e 8c be 1a 52 1c be a1 97 ca 3e
       -0.34698647 -0.27452758 -0.15265694 0.3956881
000200 00 96 01 3e f8 ac 87 bd bf 1d 03 3c c5 05 be bd
       0.12654877 -0.06624788 0.0080026975 -0.09278444
000210 c9 2c 57 3e 9f b9 f5 3e 37 18 1a 3e da 57 2c 3e
       0.21013178 0.4799318 0.150483 0.16830388
000220 0b 69 80 bb c7 0a b7 3e 1c e6 30 3e e5 0f fc be
       -0.003918772 0.3575041 0.1727528 -0.49230877
000230 79 7e 4b bc de ba 49 bd bc 61 d5 3d 88 0b 94 3a
       -0.01242029 -0.049250476 0.10419032 0.001129494
000240 b9 0e bc be 6c bf da 3e 9e 76 80 be 8a a1 7e 3c
       -0.36729982 0.42724168 -0.25090498 0.015541444
000250 61 fb 99 be 72 4e a8 3e 69 a4 38 be 60 4b 86 be
       -0.300746 0.3287235 -0.18031467 -0.26229382
000260 10 26 86 3d 9d 6c 1b be 6d 97 85 be 83 af e6 3d
       0.065502286 -0.15178151 -0.2609209 0.11263945
000270 1d ca e9 3e 9f c6 4b 3e 28 1f b8 3c e6 bf 09 3e
       0.45662013 0.19899987 0.022475794 0.1345211
000280 8a 74 d6 3e df 4e 13 bf 87 5a 6e 3c 78 ff 1b 3e
       0.41885787 -0.5754222 0.014547951 0.15234172
000290 c7 4d 1c 3e 67 df 97 bd c1 de 76 be 17 fa da bd
       0.15264045 -0.074156575 -0.24108411 -0.10692232
0002a0 16 84 a7 3c 2c 68 31 bd 2c 7e 77 3e ab 18 31 bd
       0.020448726 -0.043312237 0.24169225 -0.043236416
0002b0 41 fb c8 bd cc 07 4f 3d 2b 08 7b 3c ad 00 83 3e
       -0.09813548 0.050544545 0.015321772 0.25586453
0002c0 ae e2 65 bd 0b e3 e2 bd c0 3e 0f 3c b3 67 17 be
       -0.05612438 -0.11078461 0.008742988 -0.14785652
0002d0 96 51 33 be 2b 6b ef bd b2 09 18 3f a7 98 1b 3e
       -0.17511591 -0.116903625 0.59389794 0.15194951
0002e0 3e 2e 40 be c1 ae f5 3e 63 5e 75 be b3 5f b8 3e
       -0.1876764 0.4798489 -0.23961787 0.36010513
0002f0 34 f0 66 bd cd f0 90 3e 26 f3 92 be 8d 72 24 3d
       -0.05638142 0.28308716 -0.28701133 0.040148307
000300 90 f9 27 3d 45 5c 1a 3e d5 f6 bc bb 5c aa 8f be
       0.041009486 0.1507426 -0.0057667294 -0.2805966
000310 cf 31 0c 3d 10 4e 61 3e 48 ed c5 3c 96 26 42 be
       0.03422719 0.22002435 0.024160996 -0.18960032
000320 0f ba 42 3d 87 31 30 be 8e 95 0d 3e 44 90 b0 bd
       0.04754072 -0.17206393 0.13826582 -0.086212665
000330 a3 ea 42 bc 7a c9 58 bd 7b 6e 38 be 07 ef 60 3d
       -0.011896762 -0.052926518 -0.18010895 0.054915454
000340 98 86 75 3d 52 cb cb 3e 63 b3 06 bf 5d 68 a1 3e
       0.05994281 0.3980356 -0.5261747 0.31524935
000350 d7 39 85 3e ef 78 55 be 6a 9a 04 bf b7 0a b9 bd
       0.2602069 -0.20846914 -0.5179812 -0.09035247
000360 b0 5f 35 3e 4e a7 1a 3d 86 82 29 3d 4e ea d1 3e
       0.17712283 0.03775721 0.041384242 0.40999073
000370 9a 68 5f bd 21 ae bd 3e a9 bb 17 bd ef 6c b9 3c
       -0.054543115 0.37046912 -0.0370442 0.022634951
000380 ff 6b 8d 3e 1f b0 64 bd 8e 10 46 3e c8 48 8b be
       0.27621457 -0.055832025 0.19342253 -0.27203965
000390 6f a2 07 bd d6 f4 7a be a3 06 47 3e 6e 1b 4b be
       -0.033113893 -0.2450746 0.19436125 -0.19834682
0003a0 35 6a 7c 3d be 42 4d be e8 bc 93 3e 4b 10 0c be
       0.061624724 -0.20044991 0.28855062 -0.1367809
0003b0 42 5d 58 be 67 1d ef bc e1 e4 c3 3d d7 c4 f4 3e
       -0.21129325 -0.029188825 0.095651396 0.47806427
0003c0 f7 26 17 bd ca c4 4c bf 11 98 29 be 3a ac a5 be
       -0.036902394 -0.79987776 -0.16561915 -0.3235796
0003d0 37 56 9f bd ca 7c 06 3e c1 78 0d 3e 40 31 c0 3c
       -0.07780116 0.13133541 0.13815595 0.023460984
0003e0 80 65 7a 3e ff a2 8f 3c 63 c9 1b be 9e 45 d1 3d
       0.24452782 0.017533777 -0.15213542 0.102183565
0003f0 fa cd 3e 3e 9f 0f af bd 69 62 89 3b cd 1f dc 3d
       0.18633261 -0.08547901 0.0041926396 0.10748253

in_ch_lstm.linear.bias f4 [20]
000000 72 7b 9f bc e2 6e ad 3c bb ca a8 bb 15 a9 9a bc
       -0.019468043 0.021171037 -0.0051511205 -0.018879453
000010 14 00 3c bb 6f a9 29 3c 06 b7 80 bc d0 bd 2b bc
       -0.002868657 0.0103553375 -0.015712272 -0.010482267
000020 ed 86 4d 3c c9 f8 29 ba 95 ad 2b 3c 07 6e 09 3c
       0.012544376 -0.000648391 0.010478397 0.008388049
000030 2d 55 69 bc e0 31 17 3c 5d 5f 1e bd 3b 3a e2 bb
       -0.014241499 0.0092282 -0.038665164 -0.0069039143
000040 e6 68 01 bc 3e 09 62 bd c7 b5 80 bb 9b e7 f1 3b
       -0.007898545 -0.055184595 -0.0039279195 0.007382346

in_conv.weight f4 [20, 22, 1, 1]
000000 b8 f5 9d bc 37 30 99 3d 77 a6 ec 3c 8f 69 62 be
       -0.019282207 0.074798994 0.02888797 -0.2211058
000010 f7 b0 70 be 77 47 9e 3d 6b 17 5b bd 5b c0 08 be
       -0.23505007 0.077284746 -0.05348913 -0.13354628
000020 9e 79 4c 3c 30 ca 80 3d aa 5a 12 be 33 06 66 3d
       0.012480168 0.06288564 -0.14292398 0.056158256
000030 a9 66 c1 bd 34 8a 89 3c 12 cc ac bb 03 4f 48 3e
       -0.09443409 0.016789533 -0.0052733505 0.1956139
000040 4b b2 44 be 63 fb 10 3e 61 14 80 3e 21 c3 e3 3e
       -0.19208638 0.14158396 0.25015548 0.4448481
000050 52 b4 e1 be f2 ea ba 3b 70 26 0f 3d 4b 52 f0 bc
       -0.44082886 0.005704277 0.034948766 -0.029336115
000060 1e 1b 9b 3d f6 f6 1f be 66 0e 39 bd 2a c6 16 be
       0.075735316 -0.15621552 -0.045179747 -0.14724031
000070 aa 19 ab be 2a b1 2b 3e bc 7a 99 be af 0e 01 be
       -0.33418018 0.16766801 -0.2997645 -0.12603258
000080 a2 35 0c 3f 5e 66 dc 3d 3d 06 27 3d b9 ed 72 be
       0.5476934 0.107617125 0.040777434 -0.23723496
000090 c8 ee 80 bd 65 d4 b1 3d 7f 1a b2 bc 52 37 bd 3e
       -0.06295544 0.08683089 -0.02174115 0.3695627
0000a0 d9 dc 46 3e 90 a2 30 3e ef 84 02 3e b3 39 db bd
       0.19420184 0.17249513 0.12746023 -0.10704365
0000b0 54 18 a4 3d 5e 8f de 3e 16 f9 31 bd b8 9e ba 3d
       0.08012453 0.43468755 -0.043450437 0.091123044
0000c0 e7 60 94 be b1 19 06 be d4 09 8a be 1d 43 3e be
       -0.2898018 -0.13095738 -0.26960623 -0.18580289
0000d0 74 7a b3 3d 20 a0 17 3f bb 50 a2 3e 7d 20 08 3d
       0.087635905 0.59228706 0.31702217 0.03323411
0000e0 46 e9 84 bd 8b f3 7e be 0f aa 1c 3e 15 9f a2 3e
       -0.06489806 -0.24897592 0.15299247 0.31761995
0000f0 4a 10 b1 bc c8 84 63 3e 28 3d 33 3d df 1f bb 3c
       -0.021614213 0.22218621 0.043759495 0.022842346
000100 03 1f 9c 3e 5a 4e 0b 3d cf 74 71 be d4 50 f8 3e
       0.3049241 0.03401027 -0.23579715 0.48499167
000110 2f 90 a2 be 8d 99 b9 be 72 4f 2b bc fa 27 45 bd
       -0.31750628 -0.36249962 -0.010455953 -0.048133828
000120 62 a7 97 3d 80 fc 5e 3d 0b af 12 be 5a bd 47 bd
       0.074049726 0.05444002 -0.14324586 -0.048764564
000130 5d 4d 6e 3e 5c b5 c3 bd f2 17 13 3d e1 d2 52 3d
       0.23271699 -0.09556076 0.035911508 0.05147064
000140 1f 80 a9 be bf 18 13 bd db 7e fe bd cd cd 37 3e
       -0.3310556 -0.03591227 -0.124265395 0.179496
000150 07 6b 5d 3e f9 60 68 3d 2f 82 04 bf d8 ea 81 be
       0.21622859 0.056733105 -0.51761144 -0.25374484
000160 c1 3e 20 be 63 00 8e 3e d6 75 0c 3e ad f6 3e 3e
       -0.15648939 0.2773467 0.13716826 0.18648787
000170 33 88 09 bd 03 d6 43 3d 9e 76 7b be 8a 31 7f bc
       -0.033577155 0.04781152 -0.24556968 -0.015575776
000180 5f 93 0e be 2f 87 98 bd 56 e0 b5 3e 00 3b 5c 3e
       -0.13923405 -0.07447659 0.35522717 0.21506882
000190 11 03 1b bd e5 21 23 be 19 93 94 be 16 5d aa 3d
       -0.03784472 -0.15930898 -0.29018477 0.08318536
0001a0 c9 71 7a be 7e 26 a7 bd a3 cd 0e be f6 0b ed 3d
       -0.24457468 -0.08161639 -0.13945632 0.11574547
0001b0 a6 b4 3d be 15 cc 17 be 68 c3 4a 3e c6 44 8c 3e
       -0.18525943 -0.14823945 0.19801104 0.2739622
0001c0 19 fe 0d 3e 18 0d 25 bd 52 6f 24 be 4e 1b 33 be
       0.13866462 -0.04029569 -0.1605809 -0.17490885
0001d0 e3 fb 1d 3e 39 5e 28 3e e2 5f cf bd e4 0a a5 3d
       0.15428118 0.16442193 -0.1012571 0.08058718
0001e0 42 76 5a 3d a3 02 d2 bc d1 9f 60 3d 18 95 d8 be
       0.053335436 -0.025636023 0.054839913 -0.4230125
0001f0 b3 66 c4 bd d2 99 0f be 8b 84 5e be b3 c1 aa 3e
       -0.09589901 -0.14023522 -0.21730249 0.33350906
000200 24 c9 76 be 7b 38 46 bd b1 6e 2b bd a3 4e ed bc
       -0.24100167 -0.048393708 -0.04185361 -0.028968161
000210 78 c9 a5 3e 38 f6 21 be 7b ea 47 be f5 5c 26 3e
       0.3238027 -0.15816581 -0.19523041 0.16246398
000220 aa fc 36 be 5f 7c 41 be d4 d9 89 bd 7a 38 ac be
       -0.17869821 -0.188951 -0.067310005 -0.33636838
000230 24 e7 5b 3e c7 9a f9 3c ee e4 c9 3d 6d f7 e8 3d
       0.21474892 0.030469311 0.09858118 0.11375318
000240 b2 c6 70 bd dc 1f b4 be 42 67 71 3e 55 39 b6 be
       -0.05878324 -0.35180557 0.23574546 -0.35590616
000250 51 54 8f be 30 cd 6e be e2 99 1a be 0c 0d 18 3e
       -0.27994016 -0.2332046 -0.15097764 0.14848727
000260 72 22 36 be f8 5b e1 3e 83 44 b4 bd 16 1c 1f 3e
       -0.17786577 0.4401548 -0.0880213 0.15538058
000270 c4 7a 06 bd b9 3c fe 3d 28 e6 af be 6d a2 c6 be
       -0.032831922 0.12413926 -0.34355283 -0.38795796
000280 5a 58 b5 be 85 a7 1f 3b 62 16 96 be cb d6 bd 3e
       -0.3541897 0.0024361324 -0.29313952 0.37077937
000290 df 77 b3 3e 92 c2 cb 3b 78 07 eb be fc 9d 42 3e
       0.35052392 0.006218263 -0.45904136 0.19005579
0002a0 7f 3e b7 be 0e 13 84 bb 8d 37 14 3e 58 b2 43 bd
       -0.35789868 -0.004030592 0.14474316 -0.047777504
0002b0 58 a4 87 3c 44 cd 56 3e ed 1b 76 3d 43 e7 bd bd
       0.016557857 0.2097674 0.060085226 -0.09272625
0002c0 c8 26 07 be 75 96 d2 3d e5 f3 cf be 9e fc 7d bd
       -0.13198388 0.10282604 -0.40615764 -0.062008493
0002d0 34 b8 4c 3e 6e 84 11 3d f7 e3 72 3e 55 0a 8b be
       0.19992143 0.035526685 0.23719774 -0.2715632
0002e0 1a 11 86 3e 66 32 03 3d 8f ad 11 be b4 0f 12 be
       0.26184922 0.032030486 -0.14226364 -0.14263803
0002f0 e8 91 20 3e 05 ec 93 bc 2a 43 05 3f 05 16 be 3e
       0.15680659 -0.018056879 0.5205561 0.37126175
000300 bd f6 97 3c bb b0 0a 3e 7b 4c 30 3e d8 fc 01 3e
       0.018550271 0.1354398 0.17216675 0.12694108
000310 ab d5 10 bd 93 bf eb 3c 05 a0 17 be 0d 3d e7 bd
       -0.03536002 0.028777873 -0.14807136 -0.112909414
000320 1c 55 d4 bd 23 36 f1 bd 98 ec 0a be b3 90 ca bd
       -0.10367796 -0.11777904 -0.13566816 -0.098908804
000330 98 2a 96 bd 36 05 12 be c4 bb 2c be 52 bd 0f bd
       -0.07332343 -0.142598 -0.16868502 -0.03509266
000340 20 10 d1 3e ad f0 d3 bb 96 71 db bc 75 4f 35 3d
       0.40832615 -0.0064679 -0.02678756 0.04426523
000350 ac ce 08 3e 3f 55 89 bd 7f 6a 7f be 5d 2e ca 3c
       0.13360089 -0.067057125 -0.24942969 0.02468031
000360 2a 91 1d 3e 66 0a 66 3e b8 8e c2 3d da a5 c4 3d
       0.15387407 0.22464904 0.09499878 0.09601946
000370 7a 1d 8e be ea 21 de 3e a2 5f 23 3e ee ec 96 be
       -0.27756864 0.4338525 0.1595445 -0.29477638
000380 53 79 71 be 06 5f 8b 3d b3 ba 5d bb 41 1a b4 be
       -0.23581438 0.06805234 -0.0033833205 -0.3517628
000390 9a 02 16 3e 0c 58 e4 3e b8 4d 86 3e c8 37 67 3e
       0.1464943 0.44598424 0.2623117 0.22579873
0003a0 da f7 21 bd 29 da 1c be aa ec ef bd 19 3f 88 3e
       -0.03954301 -0.15317596 -0.11715062 0.2661064
0003b0 1f 01 50 bc 58 7a b7 be 5c 54 20 3e 37 27 0d 3e
       -0.01269558 -0.35835528 0.1565718 0.1378449
0003c0 d0 80 bb be 4e ba ab bc e1 3b 20 3e 87 46 fe 3d
       -0.36621714 -0.02096286 0.15647842 0.12415796
0003d0 7d e2 a5 3d 91 12 d2 3d d7 ec 9a 3c 41 96 1f be
       0.0809984 0.102574475 0.018911762 -0.15584661
0003e0 01 cc 80 3d ad 8f 4e be 0f 74 cb bd cc 00 cd 3c
       0.06288911 -0.20171995 -0.09934246 0.025024794
0003f0 66 5c a8 3d 4f fd 05 3e 5a ac 24 ba 10 22 bb be
       0.082207486 0.13084911 -0.0006281786 -0.36549425

in_conv.bias f4 [20]
000000 91 89 8f bb a0 dd 4f 3d b5 01 25 3d 6c d7 b1 3b
       -0.004380413 0.050748467 0.04028483 0.0054272916
000010 46 f3 48 3d b9 40 26 3d 92 66 88 3c c4 51 c3 3c
       0.04906013 0.040589068 0.016650472 0.0238427
000020 85 84 6f bd 0c a3 3f 3c 14 31 f4 bc 77 7a af 3d
       -0.05847599 0.011696588 -0.029808559 0.0856828
000030 73 a6 32 3d 61 a3 ff 3c 28 1a 4d 3d 19 04 17 3c
       0.04361577 0.031205835 0.050073773 0.009217286
000040 5b 02 59 3d b2 23 31 3d 82 ba 73 39 c8 1c c8 3d
       0.052980762 0.043246932 0.00023243765 0.097711146
